fp16-acc/last_ln.pt (torch, 533731 bytes, 3 tensors)

weight f4 [1024]
00000000: 00e0 8e41 0000 8c41 0080 8541 0040 9441
00000010: 0060 8e41 00a0 9841 0040 8e41 0060 8c41
00000020: 00c0 8641 00e0 8e41 00a0 9d41 0040 8a41
00000030: 0040 76c0 00e0 8e41 00c0 8c41 00c0 8a41
00000040: 00c0 9341 00e0 8941 00e0 8b41 0060 9241
00000050: 0020 9a41 0060 9041 0000 8641 0080 8841
00000060: 0040 8d41 00a0 8d41 00e0 8d41 0000 8541
00000070: 00c0 8a41 00a0 9141 00e0 9141 0040 8c41
00000080: 0040 8c41 0000 9141 0080 8d41 0080 6fc2
00000090: 00a0 8841 0020 d741 0080 8e41 0040 8741
000000a0: 0060 9041 0040 8c41 0000 8e41 0020 8941
000000b0: 0040 9941 00c0 a641 0060 8a41 0080 8c41
000000c0: 0020 8441 0080 8941 00a0 8d41 0060 8b41
000000d0: 0000 8e41 0040 9441 00a0 a041 0080 8b41
000000e0: 0060 9141 0060 8b41 0060 8a41 00a0 2542
000000f0: 00c0 8941 00e0 9041 0060 9041 0020 8c41
00000100: 00c0 8641 00c0 9341 0040 8d41 0080 8641
00000110: 00a0 8b41 00c0 8f41 0000 9341 00c0 8e41
00000120: 0000 8c41 0080 a341 00a0 9141 0060 8a41
00000130: 0020 0b42 00e0 8f41 0080 a741 0020 8a41
00000140: 0020 9041 0040 8c41 00c0 8e41 0040 9941
00000150: 00a0 5441 00e0 8c41 0040 9141 0020 8f41
00000160: 00c0 8541 0080 8b41 00e0 8e41 00a0 7f41
00000170: 0000 8d41 0040 8c41 0020 8e41 0000 a041
00000180: 00a0 9341 0080 8441 00c0 9a41 0060 8941
00000190: 0080 5041 00c0 8c41 00c0 8f41 0080 8f41
000001a0: 0020 0142 00e0 6f42 0040 8c41 0060 8d41
000001b0: 0040 8e41 0040 8641 0040 c741 00c0 9241
000001c0: 0000 9241 0020 be41 0000 9441 0020 8d41
000001d0: 00a0 9641 00a0 8e41 0000 8e41 0080 9641
000001e0: 00a0 8f41 00c0 8441 0000 9241 0060 9641
000001f0: 00c0 8541 00c0 a641 00a0 ce41 0020 8f41
00000200: 0020 8d41 0000 8d41 0000 8e41 0040 8b41
00000210: 0000 9241 00c0 8641 0000 9041 0040 9241
00000220: 00a0 8c41 00c0 8a41 00a0 8b41 0020 c441
00000230: 0000 8c41 00c0 8c41 0060 9941 00e0 8c41
00000240: 00a0 8c41 0000 9041 00a0 9041 0000 5f42
00000250: 0020 9241 00a0 8c41 0020 8c41 0000 8d41
00000260: 0020 8d41 00e0 8a41 0040 aa41 0000 8b41
00000270: 0040 0b42 0040 8741 0080 8e41 00a0 8b41
00000280: 0020 8d41 0020 8a41 0060 9141 0060 8941
00000290: 0080 9642 00a0 8a41 00a0 9b41 00c0 8d41
000002a0: 00a0 8c41 0080 8f41 0040 8941 0000 8f41
000002b0: 00c0 8641 0000 9241 0020 8741 00a0 8b41
000002c0: 00a0 8e41 0060 9341 0040 9341 0080 8e41
000002d0: 00e0 9341 00e0 8941 0000 8941 0000 9141
000002e0: 0080 9041 00a0 a241 0080 8841 00e0 8e41
000002f0: 0000 7842 0020 9041 0020 8241 0000 8c41
00000300: 00a0 8841 00a0 9541 0060 8941 0000 9041
00000310: 0000 8441 0080 8641 00e0 9341 0020 8d41
00000320: 0040 8e41 00a0 9a41 0000 2a41 0000 8a41
00000330: 0080 9241 0080 8a41 00e0 8c41 00e0 6441
00000340: 0080 8f41 00c0 8941 0040 9141 00a0 8f41
00000350: 0020 8841 0040 8f41 0040 8d41 00a0 b841
00000360: 0080 9341 0040 a641 0060 8e41 00c0 8441
00000370: 0080 4641 0040 8e41 0020 ce41 0020 c741
00000380: 00c0 8a41 00a0 8c41 00c0 9d41 0060 8d41
00000390: 0000 9041 0060 8c41 0080 8d41 0060 8d41
000003a0: 0040 9141 00e0 8c41 0040 9b41 0040 9541
000003b0: 0000 8a41 0040 9641 0080 8a41 0000 8a41
000003c0: 00e0 8d41 00e0 9141 00c0 9241 00e0 8e41
000003d0: 0000 8741 0040 8941 0000 8d41 0080 9341
000003e0: 00a0 9c41 0040 8841 00a0 8b41 0020 9641
000003f0: 00e0 8941 00c0 8c41 0060 8a41 00a0 8a41
17.859375 17.5 16.6875 18.53125 17.796875 19.078125 17.78125 17.546875
16.84375 17.859375 19.703125 17.28125 -3.8476562 17.859375 17.59375 17.34375
18.46875 17.234375 17.484375 18.296875 19.265625 18.046875 16.75 17.0625
17.65625 17.703125 17.734375 16.625 17.34375 18.203125 18.234375 17.53125
17.53125 18.125 17.6875 -59.875 17.078125 26.890625 17.8125 16.90625
18.046875 17.53125 17.75 17.140625 19.15625 20.84375 17.296875 17.5625
16.515625 17.1875 17.703125 17.421875 17.75 18.53125 20.078125 17.4375
18.171875 17.421875 17.296875 41.40625 17.21875 18.109375 18.046875 17.515625
16.84375 18.46875 17.65625 16.8125 17.453125 17.96875 18.375 17.84375
17.5 20.4375 18.203125 17.296875 34.78125 17.984375 20.9375 17.265625
18.015625 17.53125 17.84375 19.15625 13.2890625 17.609375 18.15625 17.890625
16.71875 17.4375 17.859375 15.9765625 17.625 17.53125 17.765625 20.0
18.453125 16.5625 19.34375 17.171875 13.03125 17.59375 17.96875 17.9375
32.28125 59.96875 17.53125 17.671875 17.78125 16.78125 24.90625 18.34375
18.25 23.765625 18.5 17.640625 18.828125 17.828125 17.75 18.8125
17.953125 16.59375 18.25 18.796875 16.71875 20.84375 25.828125 17.890625
17.640625 17.625 17.75 17.40625 18.25 16.84375 18.0 18.28125
17.578125 17.34375 17.453125 24.515625 17.5 17.59375 19.171875 17.609375
17.578125 18.0 18.078125 55.75 18.265625 17.578125 17.515625 17.625
17.640625 17.359375 21.28125 17.375 34.8125 16.90625 17.8125 17.453125
17.640625 17.265625 18.171875 17.171875 75.25 17.328125 19.453125 17.71875
17.578125 17.9375 17.15625 17.875 16.84375 18.25 16.890625 17.453125
17.828125 18.421875 18.40625 17.8125 18.484375 17.234375 17.125 18.125
18.0625 20.328125 17.0625 17.859375 62.0 18.015625 16.265625 17.5
17.078125 18.703125 17.171875 18.0 16.5 16.8125 18.484375 17.640625
17.78125 19.328125 10.625 17.25 18.3125 17.3125 17.609375 14.3046875
17.9375 17.21875 18.15625 17.953125 17.015625 17.90625 17.65625 23.078125
18.4375 20.78125 17.796875 16.59375 12.40625 17.78125 25.765625 24.890625
17.34375 17.578125 19.71875 17.671875 18.0 17.546875 17.6875 17.671875
18.15625 17.609375 19.40625 18.65625 17.25 18.78125 17.3125 17.25
17.734375 18.234375 18.34375 17.859375 16.875 17.15625 17.625 18.4375
19.578125 17.03125 17.453125 18.765625 17.234375 17.59375 17.296875 17.328125

bias f4 [1024]
00000000: 0080 9fbc 0000 abbc 00a0 033d 0040 86be
00000010: 00e0 9cbe 0000 ffbd 00c0 293e 00a0 03be
00000020: 00c0 aaba 0080 84be 00e0 bc3e 0040 73be
00000030: 0080 333f 00a0 e03e 0060 253e 0060 5a3d
00000040: 00e0 b1bd 0060 46be 0040 0cbe 00e0 203e
00000050: 0000 5c3e 0060 9ebe 0060 d33d 0000 453e
00000060: 0040 79bb 00a0 86be 00e0 203d 00e0 54be
00000070: 0080 243e 0000 823d 0060 413e 0040 9ebe
00000080: 0040 dc3e 00c0 463e 0040 85be 0000 60c2
00000090: 0040 d2be 0060 a53f 0040 3ebe 0020 e6bd
000000a0: 00c0 02be 0020 35bd 0080 bebd 0000 61be
000000b0: 0040 f73b 0080 82be 00a0 9abd 00c0 253e
000000c0: 0020 22bc 0000 2ebd 0020 0d3d 0000 173d
000000d0: 0080 413d 0080 873d 00c0 1b3e 0060 03be
000000e0: 00c0 68be 0040 bdbe 0020 8f3e 0080 57c1
000000f0: 00e0 f23c 0020 5c3e 0060 523e 0000 323c
00000100: 0040 563e 0020 9bbe 0080 01be 0080 bc3e
00000110: 0020 c9bd 00e0 67be 00e0 bebd 0080 063c
00000120: 00c0 37be 00e0 26bf 0080 42be 00a0 88bd
00000130: 00e0 3d41 0000 a1bd 00a0 1e3e 0000 6abd
00000140: 00e0 b9bd 0000 8b3e 0020 3b3e 00e0 4d3e
00000150: 0080 29bf 0060 023e 00e0 d23d 00a0 303e
00000160: 0000 bebe 0020 debd 00e0 2bbe 0040 36be
00000170: 0020 bdbd 0000 d43c 0020 103f 0060 113e
00000180: 00e0 fbbd 00c0 63bc 0060 97be 00a0 1dbc
00000190: 0040 c23c 00c0 2e3e 00c0 96be 00a0 54bd
000001a0: 0060 41bf 0080 1242 0040 6bbe 00a0 873d
000001b0: 00a0 993d 0060 fd3d 0000 63bf 0000 64be
000001c0: 0080 04bd 0020 083f 00e0 3abe 0000 a93d
000001d0: 00e0 243d 00c0 5d3c 0060 333e 0020 09be
000001e0: 0020 bebd 0020 f8be 0000 45be 00e0 e43d
000001f0: 0000 0cbf 0020 8fbe 0060 19bf 00a0 093e
00000200: 00a0 b6bc 0020 35be 0020 bf3e 0000 f8bd
00000210: 0060 8b3d 0080 ec3e 0060 1a3e 00c0 9fbc
00000220: 00a0 c6bd 0040 0abd 00a0 403d 00e0 c1bd
00000230: 00a0 65be 0020 e43e 0060 fc3b 00c0 2e3e
00000240: 00a0 063c 0000 8ebe 0020 c0bc 0080 08c2
00000250: 00e0 993e 00c0 abbe 0060 50be 0020 8ebe
00000260: 0020 77be 0020 a83d 0080 6d3e 00e0 2fbe
00000270: 0080 3cc1 0000 8a3e 0040 ee3c 0080 b73b
00000280: 00e0 183e 00a0 2abe 0020 28be 00a0 513e
00000290: 0020 5f42 0060 443d 0000 3b3d 0020 783d
000002a0: 00e0 4fbe 0020 88be 0020 253d 00a0 603d
000002b0: 0000 283e 00c0 743d 00c0 94bd 00a0 893d
000002c0: 00c0 70be 0020 d3bc 00e0 1fbe 00a0 edbd
000002d0: 0060 1ebf 00e0 b2bd 00c0 0d3e 0060 e9bd
000002e0: 00a0 603e 00e0 9bbd 0020 e53d 00c0 283e
000002f0: 0060 10c2 0040 31bd 0060 de3d 00e0 a23b
00000300: 0040 58be 0040 2fbd 0080 a63e 0020 503e
00000310: 0020 65be 0020 fd3d 00e0 9abd 00a0 aebd
00000320: 0060 89bd 0060 64be 0060 c4bd 00a0 39be
00000330: 00e0 9e3c 0060 00bc 0000 7cbe 0000 bfbe
00000340: 0080 97bd 00c0 f23e 0020 5abd 0060 cb3e
00000350: 0000 f83d 00a0 96be 00c0 f7bc 0040 58be
00000360: 00e0 8bbd 00c0 9cbd 0060 87be 0060 c8bd
00000370: 00a0 b23e 00a0 6b3e 0000 5640 0040 433a
00000380: 0040 debd 00c0 c6bc 00e0 85bd 0020 a9be
00000390: 0020 d03d 0060 4ebe 0060 8abd 0080 6d3d
000003a0: 0020 c2bd 00e0 463d 00e0 28bd 00a0 93bd
000003b0: 00e0 403e 00e0 c03c 0000 7bbd 0040 96be
000003c0: 00c0 e03d 0080 1abe 0000 93be 0060 e4bd
000003d0: 00c0 403b 0040 b1bd 00c0 27bd 0040 5d3e
000003e0: 00c0 cebc 0000 1a3e 0060 d53d 0080 973d
000003f0: 0080 f4bd 0080 3ebe 0080 d1bd 0040 fbbd
-0.019470215 -0.020874023 0.03213501 -0.26220703 -0.30639648 -0.12451172 0.16577148 -0.12854004
-0.0013027191 -0.25878906 0.36889648 -0.23754883 0.7011719 0.4387207 0.16149902 0.05331421
-0.08685303 -0.19372559 -0.13696289 0.15710449 0.21484375 -0.30932617 0.10321045 0.19238281
-0.0038032532 -0.26293945 0.039276123 -0.20788574 0.16064453 0.06347656 0.18884277 -0.30908203
0.43017578 0.1940918 -0.2602539 -56.0 -0.41064453 1.2919922 -0.18579102 -0.11236572
-0.12768555 -0.04421997 -0.09301758 -0.21972656 0.007545471 -0.2548828 -0.07550049 0.16186523
-0.009895325 -0.04248047 0.034454346 0.036865234 0.04724121 0.06616211 0.15209961 -0.1282959
-0.22729492 -0.3696289 0.27954102 -13.46875 0.029647827 0.21496582 0.20544434 0.010864258
0.20922852 -0.30297852 -0.12646484 0.36816406 -0.09820557 -0.22644043 -0.09320068 0.0082092285
-0.17944336 -0.65185547 -0.1899414 -0.066711426 11.8671875 -0.07861328 0.15490723 -0.057128906
-0.09075928 0.27148438 0.18273926 0.2010498 -0.6621094 0.12731934 0.10296631 0.17248535
-0.37109375 -0.10845947 -0.16784668 -0.17797852 -0.09234619 0.025878906 0.5629883 0.14196777
-0.12298584 -0.013900757 -0.2956543 -0.0096206665 0.023712158 0.1706543 -0.2944336 -0.0519104
-0.7553711 36.625 -0.22973633 0.066223145 0.07501221 0.12371826 -0.88671875 -0.22265625
-0.032348633 0.5317383 -0.18249512 0.08251953 0.040252686 0.013534546 0.1751709 -0.13391113
-0.09283447 -0.48461914 -0.19238281 0.11175537 -0.546875 -0.27954102 -0.5991211 0.13439941
-0.02229309 -0.17687988 0.37329102 -0.12109375 0.0680542 0.46191406 0.15075684 -0.019500732
-0.09698486 -0.03375244 0.047027588 -0.09466553 -0.22424316 0.44555664 0.007701874 0.1706543
0.008216858 -0.27734375 -0.023452759 -34.125 0.3005371 -0.33544922 -0.20349121 -0.2775879
-0.24133301 0.082092285 0.2319336 -0.17175293 -11.78125 0.26953125 0.029083252 0.0055999756
0.14929199 -0.16662598 -0.16418457 0.20471191 55.78125 0.047943115 0.045654297 0.060577393
-0.20300293 -0.26586914 0.04031372 0.054840088 0.1640625 0.059753418 -0.072631836 0.06719971
-0.23510742 -0.025772095 -0.15612793 -0.11602783 -0.61865234 -0.08734131 0.13842773 -0.11395264
0.21936035 -0.07611084 0.11187744 0.16479492 -36.09375 -0.043273926 0.10858154 0.0049705505
-0.21118164 -0.042785645 0.3251953 0.20324707 -0.22375488 0.12359619 -0.07562256 -0.08526611
-0.06707764 -0.22302246 -0.09588623 -0.18127441 0.01939392 -0.007835388 -0.24609375 -0.37304688
-0.07397461 0.4741211 -0.053253174 0.3972168 0.12109375 -0.29418945 -0.03024292 -0.21118164
-0.06829834 -0.076538086 -0.2644043 -0.097839355 0.34887695 0.23010254 3.34375 0.00074481964
-0.10852051 -0.024261475 -0.06536865 -0.33032227 0.101623535 -0.20153809 -0.06756592 0.0579834
-0.0947876 0.048553467 -0.041229248 -0.07208252 0.18835449 0.023544312 -0.061279297 -0.29345703
0.10974121 -0.1508789 -0.28710938 -0.11151123 0.0029411316 -0.08654785 -0.04095459 0.21606445
-0.025238037 0.15039062 0.10418701 0.07397461 -0.119384766 -0.18603516 -0.10229492 -0.122680664

hidden_states f4 [1, 128, 1024]
00000000: 2d3e cabe e097 2b3e fb59 a2be 0a2f 40bf
00000010: 9312 50be 6af9 3abe 9b93 733e 1a21 c3be
00000020: f80d b2bd b8c2 d03b 52a1 1dbf a4c1 adbd
00000030: 3816 6ec0 1bfd 46bf 9c49 3fbf 3c77 0d3f
00000040: 723c 9b3e 26cb 46be 464c bdbe b4e6 4fbd
00000050: 1918 373f 2d5f 03be 5e8d 093f 6646 81be
00000060: 236b 6fbf ef4e 103f d42d 6f3f a1f6 053f
00000070: 26b5 79be 9aa5 103f 6065 c53c 5350 383f
00000080: 249d 5f3d de39 cfbd 806d 76be d7fb 8941
00000090: f0fc 14bf a82c 64bd e8bb d1be 0c2f 493d
000000a0: 5a93 b6be 12af 3e3e 9c34 8dbe 66d6 9ebe
000000b0: e00e 4e3e 1847 563f 01a3 8abe 61b3 b4be
000000c0: 8b17 033f 1285 debe 1caf 793f 9410 44bf
000000d0: 8e73 033e 336d a53d 1222 0fbf 07b3 3dbf
000000e0: b0f0 f0be 5eea 6cbf d6a2 fcbe 693b f8bf
000000f0: b26e cd3e f336 0cbf 50b7 a83c 6c26 69be
00000100: a138 b1bd a06c 713c d32d 0bbf 2c55 87bf
00000110: 526a afbe 74bf 343e 91c6 61bf cc66 d3bd
00000120: 1522 a1be 788f bd3d 00c7 20bf e132 94be
00000130: 4c0d 59bf 7862 c33e 543d 4bbe 90bc a03e
00000140: 34f4 1d3e a856 8bbd e099 c13e ed56 c73d
00000150: 1316 d6be b69a b23e 302b 5f3d 4601 63be
00000160: 88cc fb3e f773 8fbe 92b9 333e 9519 22bf
00000170: 149e b73e 944f f83c c456 92be 3986 0f3f
00000180: 8d18 17be eebc 26bd 02d2 2bbf 03ed b13e
00000190: 1e92 0ebe 7712 69bf 72ad 3e3f 3809 793e
000001a0: 95cc 813f fa34 1341 3077 27bf 26a8 0f3f
000001b0: 8800 93bc e063 923c 7f27 a5bf 2aa8 66bf
000001c0: fc7d 3cbe 1ac2 0ebd 5778 133f 5939 41be
000001d0: 0a48 40bf a4a2 9d3e 71d8 9dbe 98a4 633c
000001e0: a7f2 2bbf 53a3 173f 282b fcbe 56c3 87bf
000001f0: da42 ecbe 10d4 113e 1053 04bf dab9 173e
00000200: 9a47 123f 76c8 5ebf facf 3cbf 2d62 3e3f
00000210: c83f 65bd 5419 a1bf e115 523e 8976 dbbe
00000220: 08f4 96be e0f0 2e3c 8724 6b3e ba30 1fbe
00000230: f506 063f 186f 0ebf e3f2 82be 79db 33be
00000240: 7270 e43e d810 4fbd f602 003f e0bc 85c1
00000250: 1a8a 91be bc7e af3c 2b0c 4dbf b3c8 883e
00000260: 7769 8abe 88c1 983e 140e e3be 0a21 233e
00000270: 6233 803d c46a 113f 279b 993e c8c3 1ebe
00000280: 646f d7bd 3bcc 10be c28f e43e 08bf 16bf
00000290: b3f0 a541 3e89 8ebd 3034 20be e773 29bf
000002a0: 5b59 ab3e 85c7 333e ea48 b0bd 3c0e 5d3e
000002b0: fb12 d13e ca1f fabe 8ab5 92be 83c5 7f3e
000002c0: 3470 343f 3cec 6dbe 9f0d 513f 803f 1cbf
000002d0: 58ee 1dbe 94dc 0ebf 3c1f 0b3f 5d80 9d3e
000002e0: b0b9 413e 2012 51bf 3527 1a3f 6061 a9bc
000002f0: 7c79 8fc1 90a0 a8be c067 df3e 1a22 9e3e
00000300: 0266 aa3e fc90 693f 1c2a 833f 3c9a 0abe
00000310: a834 0fbd 8c94 833e edc2 c6be 8476 293f
00000320: cc3f b63e 17c8 333f 54f7 993f 780b 13bf
00000330: 2100 753e 78af f03e a327 393f 4cac acbd
00000340: a34f d13e 6098 ef3b 35f5 2b3e 0fdc 69bd
00000350: 3860 333d bab2 aebe 25f9 90bd 9a56 d63e
00000360: e029 f5be 60be 6c3c 397d e6bd e0df 093e
00000370: 751f 1d3f 4492 26bf 4302 aebf ca26 173e
00000380: 742f 56bc a4be 9e3d b689 333f 96d2 f6be
00000390: d250 18bf 218f fc3d f570 ecbd cf46 17bf
000003a0: d373 dbbd c85e 503d 1274 a33e 6c88 c5be
000003b0: 305e fcbc 2648 513e b222 31be 0a97 fc3e
000003c0: 4a8e 00be 8240 24bf 2040 71bc f638 91bf
000003d0: bc4b 12be 48e9 1abe 180c 30bf de13 4cbe
000003e0: f224 603e b4b1 1f3e 84f3 2b3f 2004 9d3d
000003f0: e29e 23be bd3e ab3e 2ccf d03e 0279 e53e
-0.3950056 0.16757154 -0.31709275 -0.75071776 -0.20319586 -0.18259206 0.23786776 -0.38111192
-0.086940706 0.0063708685 -0.6157428 -0.084842 -3.7201061 -0.7772996 -0.74721694 0.5526006
0.30319554 -0.19413432 -0.36972255 -0.050757125 0.71521145 -0.12829275 0.53731334 -0.25249022
-0.9352285 0.56370443 0.93429303 0.5232945 -0.24385509 0.5650269 0.02409619 0.71997565
0.05459322 -0.10118459 -0.24065208 17.247969 -0.5819845 -0.05570665 -0.40963674 0.049117133
-0.35659295 0.18621472 -0.275792 -0.31022948 0.20122862 0.8370223 -0.27077487 -0.35293105
0.512078 -0.434609 0.9753282 -0.76587796 0.1283705 0.08077469 -0.5591136 -0.741013
-0.4705863 -0.92545116 -0.49342984 -1.939313 0.40123516 -0.54771346 0.020595223 -0.22768563
-0.08653379 0.014735371 -0.543668 -1.0572867 -0.34260803 0.17651159 -0.88193613 -0.10322341
-0.31471315 0.0925588 -0.6280365 -0.28945068 -0.84785914 0.38161063 -0.19847614 0.31393862
0.15425187 -0.06803638 0.3781271 0.09733377 -0.41813716 0.3488366 0.054484546 -0.22168455
0.49179482 -0.28018162 0.17551258 -0.63320285 0.35862792 0.030311383 -0.28581822 0.5606418
-0.14755459 -0.04070752 -0.6711732 0.34751138 -0.13922927 -0.910438 0.74483407 0.24319923
1.0140558 9.200434 -0.6541624 0.5611595 -0.01794459 0.01786989 -1.2902678 -0.9010035
-0.18407434 -0.03485308 0.576055 -0.18869533 -0.7510992 0.30788147 -0.30829194 0.013894223
-0.67167133 0.5923359 -0.49251676 -1.0606487 -0.46144754 0.14241052 -0.51689243 0.1481699
0.57140505 -0.8702463 -0.7375485 0.74368554 -0.05596903 -1.2585855 0.20516159 -0.42863873
-0.29483056 0.010677546 0.22963153 -0.15545931 0.52354366 -0.55638266 -0.25575933 -0.17564191
0.4461704 -0.050553173 0.5000452 -16.717224 -0.28425676 0.021422736 -0.8009669 0.2671562
-0.27033588 0.29835153 -0.44346678 0.15930572 0.062598005 0.56803536 0.30001184 -0.15504372
-0.10519293 -0.14140408 0.44640929 -0.5888524 20.742529 -0.069597706 -0.15644908 -0.6619248
0.3346661 0.1755658 -0.08607657 0.21587461 0.40834793 -0.48852378 -0.28654128 0.24977688
0.7048371 -0.23234648 0.8166141 -0.61034393 -0.15422952 -0.55805326 0.54344535 0.30761996
0.1891849 -0.8166828 0.60216075 -0.020676315 -17.934319 -0.32935 0.43633842 0.30885392
0.3328095 0.91236854 1.0247226 -0.13535398 -0.034962326 0.2569927 -0.38820592 0.66196465
0.35595548 0.7022719 1.2028604 -0.57439375 0.2392583 0.47008872 0.72326106 -0.084313005
0.4088107 0.0073118657 0.16792758 -0.05709463 0.043792933 -0.34120733 -0.070787705 0.41862947
-0.4788351 0.014449686 -0.11254353 0.13464308 0.61376125 -0.65066934 -1.359444 0.1476089
-0.013072837 0.077512056 0.70132005 -0.4820754 -0.5949832 0.12331987 -0.11544982 -0.5909242
-0.10715451 0.05087164 0.31924492 -0.38580644 -0.03080663 0.20437679 -0.17298391 0.49333984
-0.12554279 -0.6416093 -0.014724761 -1.1345508 -0.14286703 -0.15128052 -0.68768454 -0.19929454
0.21889094 0.15595132 0.6716845 0.076668024 -0.15978578 0.33446303 0.4078306 0.44818884
